model0.pth (torch, 886533 bytes, 26 tensors)

weight f4 [64, 1, 122]
-0.0015872521 0.0030419934 -0.00072282576 -0.0016358313 -0.0004369075 -0.0007899862 0.0015410925 -6.4642125e-05
6.168685e-05 -0.0012121159 0.0017778594 0.0015782365 0.0012035598 -0.00032793314 -0.0019647335 0.00074303255
0.0009336858 0.0002617921 0.0013059543 -0.00014565328 -0.00017642841 0.0015182978 0.0004987485 0.0012471196
0.00039141154 -3.413204e-05 0.0012866888 0.0003080913 0.000885333 -0.00020051294 -0.0005521836 0.00055614684
0.0011575387 0.0003221225 -9.513111e-06 0.00033542723 -0.00012579486 0.0007524595 8.238148e-05 0.00010191579
0.00036598142 0.00040964287 0.00031247467 0.0002621503 1.5563332e-05 0.002911391 -1.5255238e-05 0.0008956137
-0.0004413844 -0.0001980259 0.0018421636 0.0002453641 -7.001392e-05 -0.0006578185 -1.9993924e-05 0.00016990842
-0.0018398074 -0.00029315474 0.0003226197 -0.0009072785 0.0010654775 0.0021252485 0.002691202 0.00032252131
-7.610093e-05 0.0022783468 0.00017938396 0.0010318928 -0.0009032396 -1.7440703e-05 0.0009266946 0.0025868162
0.0029749009 -0.0019929684 0.00042829523 0.0006529491 0.0008288681 0.0010641932 -3.2813987e-06 -0.0003755556
-0.00031784258 0.0020176843 -0.00088268355 -0.00075152103 -0.00026455068 -0.0003758243 -0.0012623579 -0.00126402
0.000781531 -0.00022680251 -0.00024136854 0.0024575698 0.0017791425 0.0002412122 0.0009052434 -0.0018358775
-0.00021025288 3.4942583e-05 0.0003682698 -0.00024653625 0.00018694112 -0.00010462287 0.0003908314 0.0005493949
-0.00016897122 7.8394616e-05 -3.9995648e-05 0.0009241514 -5.5595796e-05 -9.704352e-05 0.00019344606 -1.3940706e-05
5.8782512e-05 0.0011493171 -4.944245e-05 5.5940327e-06 2.7323495e-05 0.00016727859 -5.2655814e-06 0.00017998116
-0.0002500165 0.0002891823 0.00018671245 -0.0004092261 0.0017671299 0.0018328856 0.0013505459 -5.6315912e-08
0.0008807519 0.0013664779 -0.0010943876 0.00031476273 -0.00037485728 -0.00019249611 -0.00039543834 -0.00027024583
-0.0008536659 0.00093321595 -0.00044576393 0.00021529873 -9.338115e-05 -0.00050149154 -0.00016481784 -0.0008778359
-0.0004309403 -0.0006857126 -0.0004989833 -0.00013703338 -0.00031859218 -0.00035996636 -0.0004525286 -0.000607274
0.00047885362 -0.0007088465 -0.00048678165 -0.00019416865 -0.0012172211 8.637668e-06 -0.00039612528 0.00016088788
-0.0004890067 -0.00023613567 -0.00013287284 5.65793e-06 -0.00072668394 4.5106397e-05 -0.0003580425 -0.00044781656
-9.437988e-05 -0.000684462 -0.0014148798 -0.0002366522 -0.00034296722 -0.0005452152 -0.00066505827 -0.00025865735
-0.000178081 -0.00013971634 -2.440346e-05 -1.2637465e-06 -4.633679e-05 -7.3609175e-05 0.0007948728 -0.0012530221
-0.0001700888 -0.0006749015 -0.00054888276 -0.00061498524 -0.00010405417 -0.0009869037 -2.936818e-05 -0.00077408436
-0.00031780283 0.0010639387 -0.0009707609 -0.0007857977 0.0003393034 -0.00039383786 -0.0009142244 -0.0003943157
-0.0014226473 -0.00038201513 -0.0006142162 -0.00081940484 -0.00019249789 0.00032683805 -0.00046355778 0.0004694907
-0.00054240366 0.0005235394 -0.00060149893 -9.2716e-05 -0.0008587297 -0.00069437927 -0.00030146755 -0.00022425212
0.0006883547 -0.00024889995 0.00038538434 0.00032274838 7.1031973e-06 -0.00019361026 -0.00017587887 0.000618062
-0.00011159497 -0.00012238277 -1.7639832e-07 -0.00012312012 3.3175573e-05 -0.00031742203 -0.0010105788 -0.000749761
-7.0675815e-06 -7.833418e-05 -0.00020462071 -9.3652285e-05 -0.00040868003 -0.00031581504 3.5495032e-06 -3.831688e-05
-0.00010773662 -2.4400593e-05 5.4451797e-05 -0.00040328453 -0.0006390341 -0.0005049229 -0.00011501409 -0.00032517224
-4.980174e-05 -2.0206091e-05 -8.016241e-05 -0.0011031055 -0.0011391852 -6.8664674e-05 -0.00029716222 0.0006036265
00000000: 580b d0ba 2e5c 473b 047c 3dba 6469 d6ba
00000010: bb10 e5b9 1417 4fba 7cfe c93a 7a90 87b8
00000020: e05d 8138 dcdf 9eba 1007 e93a d4dc ce3a
00000030: c4c0 9d3a 71ee abb9 c2c2 00bb 12c8 423a
00000040: 98c2 743a 2441 8939 8e2c ab3a 81ba 18b9
00000050: a4ff 38b9 9f01 c73a 72be 023a 6476 a33a
00000060: 5e36 cd39 0029 0fb8 1da6 a83a 5087 a139
00000070: b115 683a c840 52b9 6ac0 10ba 62ca 113a
00000080: 8eb8 973a 8de2 a839 809a 1fb7 48dc af39
00000090: cde7 03b9 b440 453a 38c4 ac38 a0bb d538
000000a0: 32e1 bf39 56c5 d639 a4d3 a339 3871 8939
000000b0: 008e 8237 09cd 3e3b c0f0 7fb7 9ec7 6a3a
000000c0: 9d69 e7b9 2ca5 4fb9 c174 f13a 36a4 8039
000000d0: 70d4 92b8 7471 2cba a0b8 a7b7 7229 3239
000000e0: b125 f1ba 90b2 99b9 4825 a939 6ed6 6dba
000000f0: 7ea7 8b3a c147 0b3b e15e 303b 1418 a939
00000100: 6098 9fb8 5150 153b 0419 3c39 9440 873a
00000110: 62c7 6cba a04d 92b7 6ced 723a 9387 293b
00000120: 8ef6 423b 769c 02bb d08c e039 ac2a 2b3a
00000130: 6648 593a 667c 8b3a 0036 5cb6 38e6 c4b9
00000140: 1ca4 a6b9 203b 043b e463 67ba b901 45ba
00000150: 64b3 8ab9 490a c5b9 b475 a5ba 79ad a5ba
00000160: a8df 4c3a d6d1 6db9 e017 7db9 2e0f 213b
00000170: 1e32 e93a e8ed 7c39 db4d 6d3a d4a1 f0ba
00000180: 5477 5cb9 508f 1238 5614 c139 8941 81b9
00000190: a005 4439 fa68 dbb8 81e8 cc39 4505 103a
000001a0: de2d 31b9 ca67 a438 00c1 27b8 c042 723a
000001b0: 882f 69b8 d883 cbb8 c8d7 4a39 e0e2 69b7
000001c0: 3e8d 7638 afa4 963a 6d60 4fb8 60b4 bb36
000001d0: c234 e537 8167 2f39 00af b0b6 53b9 3c39
000001e0: a614 83b9 649d 9739 3ec8 4339 668d d6b9
000001f0: 0a9f e73a 6f3d f03a cd04 b13a 00e0 71b3
00000200: 42e2 663a 641b b33a 8e71 8fba bd06 a539
00000210: 7e88 c4b9 c8d8 49b9 d652 cfb9 c8af 8db9
00000220: 8cc8 5fba 10a3 743a 6cb5 e9b9 d0c1 6139
00000230: a0d5 c3b8 8776 03ba f4d2 2cb9 921e 66ba
00000240: d4ef e1b9 65c1 33ba 34ce 02ba 9eb0 0fb9
00000250: b808 a7b9 deb9 bcb9 5c41 edb9 7831 1fba
00000260: a50e fb39 e2d1 39ba ba36 ffb9 c099 4bb9
00000270: 2a8b 9fba 80ea 1037 09af cfb9 03b4 2839
00000280: af30 00ba 309b 77b9 c853 0bb9 40d9 bd36
00000290: ef7e 3eba a030 3d38 a7b7 bbb9 ecc8 eab9
000002a0: d0ed c5b8 786d 33ba 7d73 b9ba d725 78b9
000002b0: 48d0 b3b9 c6ec 0eba 4e57 2eba 679c 87b9
000002c0: 41bb 3ab9 d280 12b9 08b6 ccb7 009e a9b5
000002d0: c059 42b8 a05e 9ab8 035f 503a 723c a4ba
000002e0: dd59 32b9 dfeb 30ba e6e2 0fba f636 21ba
000002f0: a837 dab8 fe5a 81ba b05b f6b7 eceb 4aba
00000300: c69e a6b9 dc73 8b3a a97a 7eba fefd 4dba
00000310: 88e4 b139 067c ceb9 90a8 6fba 28bc ceb9
00000320: 1f78 baba 3449 c8b9 5a03 21ba 54cd 56ba
00000330: 42d9 49b9 765b ab39 ac09 f3b9 fa25 f639
00000340: 1830 0eba 223e 093a e9ad 1dba 8670 c2b8
00000350: 601c 61ba 0107 36ba 4a0e 9eb9 3825 6bb9
00000360: b472 343a c97e 82b9 690d ca39 8e36 a939
00000370: 0058 ee36 dc03 4bb9 206c 38b9 7005 223a
00000380: 1808 eab8 e053 00b9 0068 3db4 ce19 01b9
00000390: 0026 0b38 aa6b a6b9 6675 84ba 9c8b 44ba
000003a0: 1026 edb6 5847 a4b8 748f 56b9 3067 c4b8
000003b0: 1b44 d6b9 fa93 a5b9 0034 6e36 70b6 20b8
000003c0: a8f0 e1b8 e0af ccb7 2c63 6438 ef6f d3b9
000003d0: da84 27ba cd5c 04ba b833 f1b8 e17b aab9
000003e0: 36e2 50b8 4080 a9b7 de1c a8b8 1496 90ba
000003f0: b650 95ba 1100 90b8 70cc 9bb9 b03c 1e3a

bias f4 [64]
-0.0010519237 -0.004367834 -0.006134295 -0.0076167397 -0.0060923784 -0.0069620013 -0.003090886 -0.0010576425
0.0031591007 -0.0016042185 -0.009258075 -0.0007195503 0.009593664 -1.26424375e-05 -0.0018671803 -0.0022909257
0.010452943 0.010971041 0.0089156525 -0.01620268 0.012689654 0.005408084 0.026074348 -5.8178472e-08
0.015738482 0.0102668675 0.018185042 0.037276607 0.029628258 0.019595493 0.03888888 0.019758346
0.03398177 0.012559981 0.029467767 -0.015555589 -0.0055415677 -0.033853978 -0.0052896934 -0.030993633
-0.025530789 -0.015389048 0.033729047 0.013483669 -0.060179617 0.007771655 0.010629368 0.014989301
-0.0018071835 -0.104666665 -0.059614018 -0.06117929 -0.07051664 -0.055090636 0.01862829 0.045120806
0.011766771 -0.07361207 -0.08227877 0.05184857 -0.06441445 0.037680037 -0.0124168685 0.0071393754
00000000: b4e0 89ba 0c20 8fbb 3202 c9bb d895 f9bb
00000010: 93a2 c7bb 8021 e4bb 7690 4abb 98a0 8aba
00000020: ea08 4f3b a444 d2ba 2eaf 17bc 34a0 3cba
00000030: be2e 1d3c db1a 54b7 2dbc f4ba 5b23 16bb
00000040: d242 2b3c e2bf 333c f512 123c 7cbb 84bc
00000050: 44e8 4f3c 4c36 b13b df99 d53c e8df 79b3
00000060: fded 803c 5d36 283c ccf8 943c 5baf 183d
00000070: f6b6 f23c ba86 a03c f249 1f3d 41dc a13c
00000080: 7830 0b3d 61c8 4d3c 6366 f13c dfdc 7ebc
00000090: 0a96 b5bb 78aa 0abd 2a55 adbb 5ce6 fdbc
000000a0: f225 d1bc 5822 7cbc 7827 0a3d 9bea 5c3c
000000b0: e77e 76bd 5ea9 fe3b cd26 2e3c af95 753c
000000c0: 04df ecba 7a5b d6bd d42d 74bd 2397 7abd
000000d0: 076b 90bd b8a6 61bd 5b9a 983c 98d0 383d
000000e0: 6ac9 403c edc1 96bd c681 a8bd 2b5f 543d
000000f0: b9eb 83bd 6256 1a3d 1f70 4bbc 6cf1 e93b

weight f4 [64, 32, 2]
-0.06290986 -0.09788473 0.03503558 -0.05012244 -2.7790666e-05 -0.077240184 -0.024864718 -0.03696859
-0.017521694 0.11181955 0.112903535 0.069360554 -0.12408057 0.025164232 -0.04080665 0.094982356
-0.049123675 0.05249095 0.053361237 -0.06732519 -0.049003094 0.010225713 -0.0075976998 0.034422725
-0.084833905 -0.09443185 0.059353337 -0.057820007 0.06877546 0.052563995 -0.0935622 0.110756025
0.077015415 0.07358526 0.036804065 -0.018135965 -0.05571042 0.09498799 0.043243453 0.069245666
0.08198102 -0.041293666 0.0026355684 -0.11559899 -0.09919383 0.07251662 -0.056139916 0.052229375
0.108343944 0.10819225 -0.005516246 -0.07023965 -0.07610522 -0.119046584 -0.09623039 0.038407028
0.12466866 0.05181715 0.043452322 0.07846579 0.0072671473 -0.062257484 -0.011339724 -0.11681485
0.04329653 0.07954353 -0.10621852 0.040661946 -0.052677006 -0.10437089 -0.061549023 0.06414242
0.009681389 -0.015520185 -0.11982022 0.12126574 0.06748968 -0.070663005 -0.017656073 -0.097531915
-0.014038876 0.058856934 -0.063035265 -0.0375178 0.10851738 -0.019021228 0.07113023 0.10226472
0.09285933 0.04670097 -0.048754245 0.064650804 -0.043852568 0.06596702 0.115505934 -0.04175161
-0.08875166 0.043513775 -0.025832713 0.025425807 -0.057903334 -0.08022952 0.098290265 0.06555246
-0.096028194 0.12297849 -0.04251039 -0.11432214 -0.039461166 0.011580259 0.08650577 0.09566666
0.06607765 0.10521437 0.121722534 0.0023417324 -0.032557532 0.026513666 -0.035217807 0.058610424
-0.04809089 0.013552606 0.016645432 -0.11589001 0.06472643 0.07358776 0.11590445 0.09670152
-0.055223063 -0.08465262 0.08052589 -0.11649692 0.10193768 -0.09110756 -0.050017 -0.0029688478
-0.122895926 0.0025321394 -0.030865341 0.030567974 0.07132082 -0.11558367 -0.036889777 0.06667903
0.013581157 0.0905128 -0.046043277 0.11529632 0.0016249269 0.057858482 0.10752277 -0.025606677
-0.018752128 0.12048875 -0.033489197 0.1087316 0.051181942 0.081475675 -0.07506703 0.009279296
-0.094700456 -0.05515933 -0.0057661682 -0.08154169 0.048228696 0.045974478 0.038006768 0.115563065
0.03456013 0.103012666 -0.10307206 -0.059447423 0.07675378 -0.084968165 0.08793752 -0.050981954
0.029214203 0.030903652 0.07127437 -0.07256551 -0.011569098 0.07804856 0.042673007 0.084259704
-0.068796635 -0.116044104 -0.074680954 0.03850065 -0.08043721 -0.057729155 0.10256116 -0.12490156
-0.07586217 0.0159048 0.07386468 -0.023801014 0.09837286 0.0931503 0.039123893 -0.10044803
0.06708081 0.046301305 -0.11306681 0.12448187 -0.10266307 0.07073735 0.072388396 0.02172631
0.043156892 -0.034829527 0.115245536 -0.08399817 0.09222327 -0.09586057 -0.022774518 -0.059443966
0.067354485 0.042317286 0.036377385 -0.044874474 -0.022913232 -0.042212322 0.019487068 -0.11238636
0.018387705 -0.034994885 0.11931601 0.09542419 -0.009258106 -0.12267114 0.08902794 0.052651927
-0.006329909 -0.10988052 0.039952338 0.0988387 0.041527957 0.05114892 0.022492722 -0.030864418
-0.0037789196 -0.12436412 0.01729533 -0.014120191 0.021945044 0.077874795 0.06630947 -0.030180603
0.08818127 -0.06662412 -0.039538845 -0.04311517 0.06335665 -0.10565463 -0.037364393 -0.052674383
00000000: e2d6 80bd ca77 c8bd 7881 0f3d 304d 4dbd
00000010: 0020 e9b7 1a30 9ebd 18b1 cbbc 606c 17bd
00000020: a889 8fbc a601 e53d f839 e73d e80c 8e3d
00000030: f41d febd 3825 ce3c e024 27bd 1c86 c23d
00000040: e835 49bd c000 573d 5091 5a3d cae1 89bd
00000050: 78b7 48bd c089 273c 20f6 f8bb d8fe 0c3d
00000060: 66bd adbd 7c65 c1bd 7c1c 733d acd4 6cbd
00000070: 26da 8c3d 584d 573d 8a9d bfbd 0ed4 e23d
00000080: 42ba 9d3d deb3 963d dcbf 163d e091 94bc
00000090: 9c30 64bd 1089 c23d 0c20 313d acd0 8d3d
000000a0: aae5 a73d 8c23 29bd 80b9 2c3b 2abf ecbd
000000b0: 2226 cbbd 9883 943d f8f2 65bd 78ee 553d
000000c0: 6ee3 dd3d e693 dd3d a0c1 b4bb ced9 8fbd
000000d0: 0edd 9bbd b2ce f3bd 7014 c5bd b050 1d3d
000000e0: 4852 ff3d 383e 543d 10fb 313d acb2 a03d
000000f0: 4021 ee3b b401 7fbd 40ca 39bc a03c efbd
00000100: b457 313d b8e7 a23d 1889 d9bd 248d 263d
00000110: d8c3 57bd 68c0 d5bd d41a 7cbd 1a5d 833d
00000120: b09e 1e3c 6048 7ebc 4e64 f5bd 2c5a f83d
00000130: 0838 8a3d c4b7 90bd 78a3 90bc d0be c7bd
00000140: 5003 66bc f813 713d a218 81bd 44ac 19bd
00000150: 5c3e de3d 68d2 9bbc baac 913d 2a70 d13d
00000160: 082d be3d 8449 3f3d 88b2 47bd a467 843d
00000170: c09e 33bd b819 873d 608e ec3d bc03 2bbd
00000180: 6ec3 b5bd 803b 323d 209f d3bc c849 d03c
00000190: 0c2c 6dbd 604f a4bd 684c c93d 5e40 863d
000001a0: 6eaa c4bd 26dc fb3d 601f 2ebd ba21 eabd
000001b0: 08a2 21bd 20bb 3d3c f029 b13d e2ec c33d
000001c0: b853 873d a27a d73d aa49 f93d c077 193b
000001d0: 0c5b 05bd 3033 d93c 8c40 10bd 7c11 703d
000001e0: f4fa 44bd c00b 5e3c 005c 883c be57 edbd
000001f0: 4a8f 843d 2eb5 963d 505f ed3d 720b c63d
00000200: 9431 62bd 5a5e adbd c2ea a43d f095 eebd
00000210: b4c4 d03d 9a96 babd a0de 4cbd 0091 42bb
00000220: dcb0 fbbd 40f2 253b 50d9 fcbc b069 fa3c
00000230: a610 923d 22b7 ecbd bc19 17bd 048f 883d
00000240: 8083 5e3c c65e b93d e097 3cbd 7a20 ec3d
00000250: 80fb d43a 04fd 6c3d e634 dc3d 18c5 d1bc
00000260: 109e 99bc cec2 f63d f82b 09bd acae de3d
00000270: 28a4 513d b8dc a63d bebc 99bd 3008 183c
00000280: 50f2 c1bd c0ee 61bd 20f2 bcbb 54ff a6bd
00000290: 748b 453d bc4f 3c3d fcac 1b3d 54ac ec3d
000002a0: ec8e 0d3d 4ef8 d23d 7217 d3bd 247f 73bd
000002b0: 1631 9d3d ca03 aebd 9618 b43d 74d2 50bd
000002c0: a052 ef3c a829 fd3c 4cf8 913d 3a9d 94bd
000002d0: 508c 3dbc ecd7 9f3d e4c9 2e3d 5a90 ac3d
000002e0: 40e5 8cbd 88a8 edbd 54f2 98bd dcb2 1d3d
000002f0: 44bc a4bd 6875 6cbd 960b d23d 64cc ffbd
00000300: a05d 9bbd c84a 823c 5e46 973d 58fa c2bc
00000310: b677 c93d 96c5 be3d 6040 203d b2b7 cdbd
00000320: aa61 893d 70a6 3d3d 928f e7bd 5af0 fe3d
00000330: 0441 d2bd bede 903d 5e40 943d 60fb b13c
00000340: 48c5 303d 68a9 0ebd da05 ec3d 3c07 acbd
00000350: 8edf bc3d 8c52 c4bd a091 babc 847b 73bd
00000360: 26f1 893d e454 2d3d 7400 153d 4cce 37bd
00000370: 88b4 bbbc d4e6 2cbd 58a3 9f3c d22a e6bd
00000380: d0a1 963c cc56 0fbd f45b f43d c26d c33d
00000390: 50af 17bc 023b fbbd 4854 b63d 8ca9 573d
000003a0: 206b cfbb 0a09 e1bd 10a5 233d f26b ca3d
000003b0: 3819 2a3d 8881 513d a842 b83c 60d7 fcbc
000003c0: c0a7 77bb 9eb2 febd f0ae 8d3c 6058 67bc
000003d0: 18c6 b33c d27c 9f3d 42cd 873d 503d f7bc
000003e0: 6298 b43d 3a72 88bd 7cf3 21bd 8899 30bd
000003f0: 22c1 813d 7461 d8bd 680b 19bd 18c1 57bd

bias f4 [64]
0.0019161403 0.1060715 0.095212504 -0.08771099 0.061217755 -0.08729555 -0.022095531 0.0637203
-0.051764563 0.023466215 0.0044230223 -0.09024808 0.0044766963 0.039357916 -0.09087415 0.12097208
-0.052051768 0.12042214 0.058198035 0.0008203387 -0.11805861 0.022026628 0.10173495 0.11691357
0.068455145 -0.009910256 0.038608015 0.072279155 -0.037557513 -0.02806075 0.0031380057 -0.08279775
0.08286655 -0.050141305 0.048166215 -0.04443738 -0.115652904 0.106600195 0.09646791 0.011854321
0.06936999 -0.03956458 0.11162411 0.10631865 0.043010667 0.11496042 0.05352688 -0.0152783245
-0.03682798 -0.09343241 0.034247994 0.115803465 -0.042534754 0.071480304 0.041459918 -0.10457514
0.06823936 -0.023308605 -0.0084760785 0.108799964 0.12274271 0.058334142 0.08012578 -0.03737347
00000000: 0027 fb3a 043c d93d c6fe c23d d2a1 b3bd
00000010: 78bf 7a3d 02c8 b2bd b001 b5bc ca7f 823d
00000020: 1407 54bd 383c c03c 00ef 903b fcd3 b8bd
00000030: 40b1 923b c435 213d 3a1c babd 36c0 f73d
00000040: 3c34 55bd e29f f63d 1061 6e3d 000c 573a
00000050: b6c8 f1bd 3071 b43c 6a5a d03d 6270 ef3d
00000060: 3632 8c3d a05e 22bc 7023 1e3d 1807 943d
00000070: e8d5 19bd a8df e5bc 00a7 4d3b de91 a9bd
00000080: f0b5 a93d f860 4dbd f049 453d f803 36bd
00000090: 6edb ecbd 3451 da3d f890 c53d a038 423c
000000a0: da11 8e3d 780e 22bd 2e9b e43d 98bd d93d
000000b0: f42b 303d 5e70 eb3d 003f 5b3d f051 7abc
000000c0: f0d8 16bd 7e59 bfbd a047 0c3d 5e2a ed3d
000000d0: ec38 2ebd 4464 923d e0d1 293d 7e2b d6bd
000000e0: 14c1 8b3d b0f1 bebc 40df 0abc 84d2 de3d
000000f0: 8860 fb3d c8ef 6e3d fc18 a43d ec14 19bd

weight f4 [64]
0.46162143 0.46159723 0.46156108 0.46154815 0.4614462 0.46154597 0.46156576 0.4614258
0.46123078 0.4612304 0.4612041 0.4616429 0.4613015 0.4616752 0.46167228 0.4609649
0.4612796 0.46150318 0.4608582 0.46099666 0.46132535 0.46232453 0.46206266 0.46164587
0.46451154 0.46689424 0.46999824 0.46885967 0.46685454 0.48625007 0.514718 0.5370708
0.5257361 0.520523 0.555196 0.6212909 0.5890507 0.61596066 0.6762096 0.730387
0.6463824 0.72888464 0.6970413 0.6901927 0.7539049 0.71610284 0.7797399 0.79557854
0.8503534 0.86363584 0.88985896 1.001413 0.91256267 0.95291984 0.98888665 1.0192072
1.0037986 0.98193383 1.0533342 1.0050552 1.0199755 1.0286629 1.036822 1.097208
00000000: a559 ec3e 7956 ec3e bc51 ec3e 0a50 ec3e
00000010: ad42 ec3e c14f ec3e 5952 ec3e 0140 ec3e
00000020: 7126 ec3e 6426 ec3e f222 ec3e 755c ec3e
00000030: b62f ec3e b160 ec3e 4f60 ec3e 9703 ec3e
00000040: d72c ec3e 254a ec3e 9bf5 eb3e c107 ec3e
00000050: d632 ec3e cdb5 ec3e 7a93 ec3e d95c ec3e
00000060: 75d4 ed3e c30c ef3e 9ca3 f03e 600e f03e
00000070: 8f07 ef3e c5f5 f83e 8fc4 033f 797d 093f
00000080: a496 063f ff40 053f 5321 0e3f ec0c 1f3f
00000090: 07cc 163f 99af 1d3f 131c 2d3f a4fa 3a3f
000000a0: 5179 253f 2f98 3a3f 4c71 323f 78b0 303f
000000b0: e9ff 403f 8452 373f 099d 473f 09ab 4b3f
000000c0: c3b0 593f 3d17 5d3f cccd 633f 4d2e 803f
000000d0: b59d 693f 8ef2 733f ad27 7d3f 6275 823f
000000e0: 797c 803f 0460 7b3f a8d3 863f a6a5 803f
000000f0: 8f8e 823f 3aab 833f 95b6 843f 5071 8c3f

bias f4 [64]
-0.0021394107 -0.0024884788 -0.0027890515 -0.0030774046 -0.00333269 -0.0035434386 -0.0037721158 -0.0039692996
-0.004007216 -0.0039873966 -0.0038641817 -0.0036637858 -0.0035636853 -0.0031207793 -0.0027638627 -0.0023273113
-0.0017144675 -0.00082557206 0.00025803177 0.0016517141 0.00284611 0.004416448 0.006256888 0.008113943
0.009257935 0.010435766 0.012153424 0.013345299 0.013622692 0.014331557 0.014580307 0.014303666
0.013457587 0.014257971 0.012435215 0.010199904 0.0073973224 0.005712429 0.0024985168 -0.0011343714
0.00014568545 0.0019010738 -0.00075721997 -0.001450257 -0.0026597017 -0.008264797 -0.00318376 -0.007614782
-0.0043657664 -0.009269058 -0.013476675 -0.0054000374 0.002576147 -0.0030073794 -0.009830275 0.0014360904
0.0025463295 0.004597274 0.013587168 0.010475518 0.012784289 0.009450919 0.0054643075 -0.003186849
00000000: 5b35 0cbb bf15 23bb 85c8 36bb 48ae 49bb
00000010: 4369 5abb 0939 68bb 9a35 77bb e610 82bb
00000020: f74e 83bb b5a8 82bb 363e 7dbb 201c 70bb
00000030: b88c 69bb fd85 4cbb ec21 35bb ce85 18bb
00000040: fcb7 e0ba 346b 58ba 7048 8739 547e d83a
00000050: cd85 3a3b dab7 903b 9506 cd3b 58f0 043c
00000060: 98ae 173c c6fa 2a3c 281f 473c 3ea6 5a3c
00000070: b631 5f3c e8ce 6a3c 3de2 6e3c ec59 6a3c
00000080: 367d 5c3c 449a 693c 12bd 4b3c 801d 273c
00000090: 3d65 f23b 542f bb3b 28be 233b 30af 94ba
000000a0: 24c3 1839 742d f93a 2c80 46ba 8d16 beba
000000b0: 644e 2ebb 1269 07bc a1a6 50bb 6c85 f9bb
000000c0: b40e 8fbb 3fdd 17bc 46cd 5cbc ccf2 b0bb
000000d0: 93d4 283b 7417 45bb 290f 21bc 333b bc3a
000000e0: 52e0 263b bba4 963b b79c 5e3c 82a1 2b3c
000000f0: 3275 513c 07d8 1a3c ef0d b33b 74da 50bb

running_mean f4 [64]
0.0036014402 2.449271e-05 0.0 7.6564277e-10 0.0015605548 0.0 0.0 0.005387143
0.015222735 0.008545666 0.00027628115 0.0 0.02097279 0.0 0.0 0.01198898
0.026318211 0.025881452 0.021611594 4.132941e-05 0.026264533 0.02139255 0.04404509 0.0
0.031282775 0.03227663 0.036815997 0.06057639 0.052158482 0.040377084 0.06907888 0.041883904
0.05619665 0.036348265 0.071002215 0.025062205 0.04243983 0.012530061 0.043079298 0.03855701
0.030414293 0.043431338 0.11491935 0.11683941 0.021179171 0.103929505 0.11916891 0.13330121
0.09822029 0.022671647 0.057573702 0.08440388 0.084385246 0.053650796 0.16754247 0.16573858
0.18030317 0.030368106 0.039039556 0.19291261 0.10168977 0.13016476 0.09745687 0.13637847
00000000: 2406 6c3b b275 cd37 0000 0000 5275 5230
00000010: 888b cc3a 0000 0000 0000 0000 a286 b03b
00000020: c768 793c 1f03 0c3c d4d9 9039 0000 0000
00000030: 21cf ab3c 0000 0000 0000 0000 6d6d 443c
00000040: 4a99 d73c 5705 d43c cc0a b13c 1e59 2d38
00000050: b828 d73c 6e3f af3c a068 343d 0000 0000
00000060: 5e22 003d 8034 043d 5fcc 163d f31e 783d
00000070: 22a4 553d 7162 253d 3a79 8d3d 758e 2b3d
00000080: 752e 663d ebe1 143d 9c69 913d 414f cd3c
00000090: 63d5 2d3d e34a 4d3c eb73 303d f5ed 1d3d
000000a0: 6527 f93c 0fe5 313d d65a eb3d 8049 ef3d
000000b0: f17f ad3c fed8 d43d d40e f43d 1d80 083e
000000c0: b827 c93d e4b9 b93c 67d2 6b3d f1db ac3d
000000d0: 2cd2 ac3d f0c0 5b3d 4190 2b3e 60b7 293e
000000e0: 65a1 383e 89c6 f83c f1e7 1f3d e28a 453e
000000f0: ba42 d03d e949 053e 7897 c73d cca6 0b3e

running_var f4 [64]
4.1964786e-06 2.8436578e-08 0.0 4.1349075e-14 7.753639e-06 0.0 0.0 4.382435e-05
0.00011751373 7.9539124e-05 1.8591072e-06 0.0 0.0002168249 0.0 0.0 0.0001883198
0.0002813711 0.00030201918 0.00027554936 1.9702992e-07 0.0004992616 0.0003525995 0.0006071817 0.0
0.00070477504 0.00076787313 0.0007414746 0.0007361228 0.000997048 0.00086822495 0.001250762 0.0008058281
0.0012760774 0.0008526713 0.001898661 0.00078777934 0.0010316445 0.0005192625 0.0013411493 0.0013639613
0.0011451913 0.0015413862 0.0025410804 0.002671263 0.000901691 0.0034767697 0.0024186585 0.0034753878
0.0035650244 0.0014784968 0.0034283067 0.0036305746 0.0048937416 0.0037959602 0.004933858 0.005741309
0.008032735 0.0025693846 0.003293772 0.0077551077 0.007966787 0.0064757564 0.0068941507 0.007350907
00000000: 7acf 8c36 b244 f432 0000 0000 3d38 3a29
00000010: a015 0237 0000 0000 0000 0000 0ad0 3738
00000020: b471 f638 3ece a638 7086 f935 0000 0000
00000030: 7e5b 6339 0000 0000 0000 0000 b677 4539
00000040: fd84 9339 5458 9e39 9c77 9039 2c8f 5334
00000050: e1e0 023a 1bdd b839 462b 1f3a 0000 0000
00000060: a7c0 383a 184b 493a 855f 423a 5df8 403a
00000070: 61af 823a 9799 633a 9cf0 a33a 353e 533a
00000080: 0d42 a73a cd85 5f3a 7edc f83a fa82 4e3a
00000090: 3f38 873a 1e1f 083a 81c9 af3a f2c6 b23a
000000a0: 3e1a 963a 5708 ca3a 4188 263b 5b10 2f3b
000000b0: 755f 6c3a 84da 633b 5b82 1e3b 55c3 633b
000000c0: 2fa3 693b 1fca c13a 71ad 603b efee 6d3b
000000d0: ae5b a03b a5c5 783b 33ac a13b 9721 bc3b
000000e0: bc9b 033c 1f63 283b 53dc 573b 8f1e fe3b
000000f0: 2087 023c 9532 d43b 54e8 e13b e1df f03b

weight_ih_l0 f4 [256, 24]
0.001636901 -0.0869108 0.10775221 -0.025704507 -0.017690722 -0.13001774 0.042098895 0.024577219
0.10736968 -0.059641086 -0.07633867 -0.010184824 -0.085784905 -0.056935377 0.08762983 0.02827316
0.040514734 0.056914292 0.02862231 0.062743075 -0.13418779 -0.123709284 -0.12644203 -0.11623049
-0.0022733635 0.033119503 0.02346939 -0.03645703 -0.03524107 0.002777885 0.03899675 -0.023174943
-0.046411693 0.051775675 -0.09094224 -0.0054060994 -0.032770477 0.0005322413 -0.0042222505 -0.022275
0.058695897 -0.042322718 -0.03872377 -0.05283139 -0.038385265 0.051307056 0.03330242 0.018678231
0.01670378 0.015613594 0.05429032 -0.10961372 0.093198694 -0.061234895 -0.05179379 -0.021788312
-0.08941223 0.015419344 -0.048977043 0.06677983 0.13241994 0.09938063 0.057251625 -0.0880652
-0.05690374 0.07206704 0.0425982 0.05055799 -0.079768576 0.040116604 -0.064290814 -0.01561928
0.025913002 -0.033003844 -0.061236553 -0.09041471 -0.11329186 0.105831146 -0.026216606 0.049082227
0.043084756 0.0053763012 0.17173813 -0.020676348 0.018265184 0.06322715 -0.08690649 0.040959876
-0.050345227 -0.114689074 0.0080798995 -0.087801404 -0.0642644 -0.081797495 -0.07776785 -0.15610352
0.049255766 -0.036148027 0.025851281 0.08380854 0.0014907911 0.07031137 -0.04877642 -0.06408783
0.024064064 0.08606705 -0.11597605 0.055781934 -0.0053779325 0.08586226 -0.043665066 -0.017099991
0.023000281 0.07789062 0.02704993 -0.032827362 0.03041994 0.033995517 0.08404432 0.036008533
-0.04742047 -0.027885655 0.08662945 -0.03552713 0.08179223 -0.0635369 0.037454933 -0.01794571
0.019263852 0.068577275 0.08064088 -0.011731222 -0.07610266 -0.00093517086 0.022163669 -0.032730877
-0.04017274 0.06457551 0.07098291 -0.13277183 0.06792407 0.039028466 0.069888 0.0020719965
0.033696808 0.09234692 -0.010744014 0.0866626 0.08980046 -0.032431886 0.05033549 0.0489799
0.013204538 -0.07188758 -0.025909703 -0.08321951 -0.028117003 0.09243438 -0.07240596 -0.13945593
-0.094488144 0.11418036 -0.0037828034 0.08170254 -0.11245892 0.045758165 -0.09135111 0.0387244
0.1290615 0.07754252 -0.013212846 -0.11069417 -0.012656226 -0.11452813 0.103533275 0.016150463
-0.06427045 0.09420741 -0.03622017 -0.012416263 0.05043362 0.040621128 -0.068260305 0.1098548
0.039115723 0.13026755 0.018914463 -0.13018937 0.046666283 -0.04857264 -0.030816833 0.07164517
0.048204996 -0.031634033 -0.08871368 0.07999831 0.05447318 0.047068406 0.090866335 0.050899636
0.08570398 0.030545805 0.11993534 0.07291608 0.021120945 0.061547864 0.03701227 0.013689502
0.08021777 0.05267587 0.019114608 0.08688481 0.06706294 -0.06733445 0.0680522 -0.034830593
-0.11490362 -0.105901286 -0.08063801 -0.025656914 -0.06519568 -0.0021797018 0.07846511 -0.08397352
-0.021167904 0.016238969 0.020181628 -0.011390821 0.07691514 -0.016808953 0.040333416 0.018306138
-0.04087502 -0.015527996 -0.11873654 -0.0031509344 0.017262196 0.01630118 -0.0009151617 0.0502689
-0.007352932 -0.01798064 -0.05320906 -0.020781657 -0.053624693 0.043200675 0.07591076 0.008491384
-0.049554497 -0.059735503 0.030778224 -0.031752635 -0.07674511 -0.08975706 -0.12536076 -0.05076772
00000000: 498d d63a 4afe b1bd 31ad dc3d 4292 d2bc
00000010: 22ec 90bc 5f23 05be e46f 2c3d 2a56 c93c
00000020: a3e4 db3d 364a 74bd 7357 9cbd 3fde 26bc
00000030: ffaf afbd 1235 69bd 4577 b33d 1d9d e73c
00000040: c7f2 253d f61e 693d 5679 ea3c 717f 803d
00000050: 8668 09be 4b5b fdbd 057a 01be 400a eebd
00000060: b6fc 14bb 51a8 073d e142 c03c f753 15bd
00000070: f158 10bd 2d0d 363b 0ebb 1f3d 61d9 bdbc
00000080: 301a 3ebd bb12 543d ed3f babd a625 b1bb
00000090: 563a 06bd 1c86 0b3a ce5a 8abb 107a b6bc
000000a0: 1c6b 703d 965a 2dbd d19c 1ebd ba65 58bd
000000b0: de39 1dbd 5927 523d 1e68 083d 1703 993c
000000c0: 5ed6 883c 29d0 7f3c 875f 5e3d 287d e0bd
000000d0: f5de be3d 71d1 7abd ba25 54bd 677d b2bc
000000e0: c21d b7bd 6ba1 7c3c 279c 48bd ddc3 883d
000000f0: 1899 073e 1288 cb3d ae80 6a3d 875b b4bd
00000100: e513 69bd e297 933d 737b 2e3d e515 4f3d
00000110: b55d a3bd 4f51 243d e7aa 83bd 02e8 7fbc
00000120: 8147 d43c 0a2f 07bd 2ed3 7abd 592b b9bd
00000130: 9005 e8bd 00be d83d 35c4 d6bc 720a 493d
00000140: a479 303d af2b b03b 1fdc 2f3e 7261 a9bc
00000150: dea0 953c 3c7d 813d 08fc b1bd 8bc5 273d
00000160: cc36 4ebd 1be2 eabd 8e61 043c 39d1 b3bd
00000170: 0e9d 83bd 7285 a7bd c044 9fbd 9ad9 1fbe
00000180: 6ac0 493d f40f 14bd 11c6 d33c d0a3 ab3d
00000190: a666 c33a 68ff 8f3d c9c9 47bd 7b40 83bd
000001a0: 0022 c53c ec43 b03d da84 edbd 997b 643d
000001b0: 5e39 b0bb 8dd8 af3d 24da 32bd 4815 8cbc
000001c0: 166b bc3c 1e85 9f3d d197 dd3c fc75 06bd
000001d0: 3d33 f93c e23e 0b3d 6e1f ac3d af7d 133d
000001e0: f73b 42bd 7570 e4bc c86a b13d e584 11bd
000001f0: af82 a73d a21f 82bd 586a 193d e202 93bc
00000200: 3acf 9d3c 3e72 8c3d 0c27 a53d 5034 40bc
00000210: b6db 9bbd 4126 75ba 9590 b53c d010 06bd
00000220: 2c8c 24bd 2a40 843d 7d5f 913d 57f5 07be
00000230: c61b 8b3d 50dc 1f3d 7121 8f3d 55ca 073b
00000240: aa05 0a3d 6220 bd3d a907 30bc 297c b13d
00000250: 4ee9 b73d 4cd7 04bd 962c 4e3d 269f 483d
00000260: d957 583c cc39 93bd 9640 d4bc fe6e aabd
00000270: a155 e6bc 3c4e bd3d 9349 94bd 89cd 0ebe
00000280: 0083 c1bd 65d7 e93d e9e8 77bb a953 a73d
00000290: dd50 e6bd ea6c 3b3d 4a16 bbbd 7a9d 1e3d
000002a0: b328 043e 9dce 9e3d b17a 58bc a0b3 e2bd
000002b0: 0f5c 4fbc b98d eabd 4109 d43d fa4d 843c
000002c0: 3aa0 83bd d1ef c03d 9a5b 14bd 956d 4bbc
000002d0: 7c93 4e3d 5762 263d 0fcc 8bbd 8efb e03d
000002e0: cf37 203d db64 053e 81f2 9a3c 5d50 05be
000002f0: 2525 3f3d 1bf4 46bd 9573 fcbc b4ba 923d
00000300: 9a72 453d b092 01bd 85af b5bd 27d6 a33d
00000310: 451f 5f3d cdca 403d 2118 ba3d 237c 503d
00000320: 9185 af3d 323b fa3c a9a0 f53d 0755 953d
00000330: d505 ad3c 9d19 7c3d 2e9a 173d ef49 603c
00000340: 3749 a43d a7c2 573d 3d96 9c3c aaf0 b13d
00000350: 4b58 893d a5e6 89bd f45e 8b3d 86aa 0ebd
00000360: 9752 ebbd c6e2 d8bd 8a25 a5bd 732e d2bc
00000370: 5085 85bd 54d9 0ebb 51b2 a03d 4ffa abbd
00000380: 5068 adbc 9607 853c f153 a53c 91a0 3abc
00000390: af85 9d3d eeb2 89bc a734 253d c1f6 953c
000003a0: 916c 27bd 2369 7ebc 252c f3bd e87f 4ebb
000003b0: 7369 8d3c 0d8a 853c 76e7 6fba c3e6 4d3d
000003c0: ddf0 f0bb 234c 93bc bef1 59bd 4b3e aabc
000003d0: 91a5 5bbd 31f3 303d 1a77 9b3d 721f 0b3c
000003e0: a8f9 4abd 37ad 74bd 9d22 fc3c 0d0f 02bd
000003f0: 8a2c 9dbd 8dd2 b7bd 925e 00be d0f1 4fbd

weight_hh_l0 f4 [256, 64]
0.08805943 0.02040769 0.0051872553 -0.10904968 0.008099358 -0.04907161 0.034797028 0.04664553
-0.029931901 -0.021906313 -0.016727868 0.010269097 -0.014790596 -0.0012573532 -0.030252006 -0.033725347
0.012322884 -0.04395614 0.030786278 -0.011088727 0.043273155 -0.002589223 -0.04915993 0.020159334
0.018796735 0.021262694 0.05897982 -0.06833269 0.028713841 -0.017390113 0.020789737 -0.010183958
-0.016781624 -0.025949817 0.06396994 0.007313898 0.07633973 0.0022733335 0.09255118 0.08322592
0.027097754 0.057289336 -0.01624079 -0.041922048 0.020148743 0.05184389 -0.038427055 0.011250896
0.02913148 0.059588913 -0.011082351 0.010736433 0.057047956 -0.07068264 -0.05774993 -0.080596715
0.06130928 0.074434705 -0.022579469 0.015807483 0.06427835 0.033181548 -0.031631485 -0.036156844
-0.007919717 -0.007282659 -0.0036560958 0.016351258 -0.0026513534 0.0034010396 0.018126773 -0.0063704248
0.009313348 -0.0062287273 -0.009407075 0.026072308 -0.010245708 -0.0039487532 0.0010400157 -0.0031916192
0.0023414528 0.00041496172 -0.0026503336 -0.0058942907 0.019926766 0.010769803 -0.0042702295 -0.0024733217
0.001920121 0.0026087011 -0.00648345 -0.008750903 -0.010930865 -0.0032412182 -0.006453176 -0.0028390917
0.0059559885 0.021183392 -0.008477934 0.006827161 -0.011114049 0.0055941436 -0.0051048263 0.005784306
-0.0052267713 -0.007866289 -0.0015414369 -0.0001744189 0.004922889 -0.00089627784 0.0013596099 -0.035797022
-0.010094457 0.02400528 0.017857945 0.021749001 0.014441779 0.035675433 0.0027374886 0.01451476
0.00779836 -0.0038977838 0.012892901 0.0037805743 -0.010461505 0.0009000427 -0.00060786016 0.012868915
0.026956562 -0.00042204425 -0.046908107 0.012518726 0.031002203 0.006327415 -0.007590159 0.028625105
0.01689034 0.023618553 -0.0014807659 -0.00042270566 -0.04272845 -0.025220225 -0.058575947 0.03422717
0.020279879 -0.016289951 -0.004137736 0.008569096 0.02165266 -0.04714231 -0.0069701504 -0.049207047
-0.013387388 0.039743118 -0.030004995 0.046361465 0.017354399 0.015761234 -0.01254661 -0.007908991
-0.015102254 -0.050912883 0.027229613 -0.0048843925 0.023860093 0.025598254 0.024042534 -0.022945348
-0.022017263 0.006432456 0.017415885 -0.023585025 -0.016848924 0.01153661 0.005651005 -0.048437543
0.01741948 0.01791407 -0.0021871908 -0.015047812 0.06252921 -0.036169175 0.032643538 -0.026357206
-0.001602568 -0.04397414 0.030643484 -0.008075621 -0.010222537 -0.050522253 -0.018858189 -0.040777147
-0.0016520657 0.0128703015 -0.08196947 -0.016081803 -0.003466539 -0.07623905 -0.030030672 0.039081797
-0.0093790665 0.042360354 0.009827362 0.022508772 0.0063246307 0.025981253 -0.060153753 -0.02441826
-0.02918727 -0.02907217 0.04252328 0.01139801 0.009600201 -0.04507091 -0.06556324 0.013326667
-0.033211425 -0.019717524 -0.031497158 -0.05342156 0.018701311 0.02992433 -0.022923408 -0.018930046
0.025483062 -0.043282196 0.051568225 0.023799857 0.07542646 -0.09071355 0.024646623 -0.024781652
0.036202457 0.015713276 -0.025698759 -0.054487478 -0.07751061 0.028915849 0.053165812 -0.07330808
-0.02542522 0.11525316 0.027251983 0.037244063 0.043978617 -0.020111741 0.0035156475 -0.058805905
0.017110739 0.031736765 0.00044064107 -0.008838236 0.0182892 -0.059546113 0.014319206 -0.08059033
00000000: 8158 b43d 072e a73c daf9 a93b 7055 dfbd
00000010: 2bb3 043c 50ff 48bd 5487 0e3d 620f 3f3d
00000020: bf33 f5bc de74 b3bc e208 89bc b73f 283c
00000030: 4254 72bc c6cd a4ba 0ed3 f7bc 9723 0abd
00000040: ece5 493c 5a0b 34bd 8133 fc3c 7ead 35bc
00000050: 313f 313d f4af 29bb ec5b 49bd 3025 a53c
00000060: 9cfb 993c 1a2f ae3c d394 713d 02f2 8bbd
00000070: 4a39 eb3c b675 8ebc 3d4f aa3c 9eda 26bc
00000080: 9e79 89bc b694 d4bc ac02 833d 6ca9 ef3b
00000090: 0158 9c3d 35fc 143b 798b bd3d 5a72 aa3d
000000a0: 1cfc dd3c 39a8 6a3d 680b 85bc 74b6 2bbd
000000b0: fa0e a53c 425a 543d b065 1dbd ae55 383c
000000c0: 24a5 ee3c 8113 743d c092 35bc dde7 2f3c
000000d0: 1eab 693d 0fc2 90bd 318b 6cbd e40f a5bd
000000e0: 711f 7b3d 3971 983d 94f8 b8bc b27e 813c
000000f0: 5ea4 833d 60e9 073d 0490 01bd 3319 14bd
00000100: b3c1 01bc 5fa3 eebb 1c9b 6fbb 13f3 853c
00000110: 54c2 2dbb fae3 5e3b 997e 943c ffbe d0bb
00000120: 0397 183c 5a1a ccbb 2220 1abc 9895 d53c
00000130: 9ddd 27bc 8b64 81bb 2351 883a 7c2a 51bb
00000140: 0f73 193b 388f d939 38b1 2dbb e524 c1bb
00000150: 753d a33c d473 303c 48ed 8bbb 7417 22bb
00000160: 92ac fb3a bef6 2a3b 1f73 d4bb f35f 0fbc
00000170: 5f17 33bc 9e6a 54bb 2a75 d3bb 0e10 3abb
00000180: 742a c33b cb88 ad3c 08e7 0abc 61b6 df3b
00000190: b317 36bc 144f b73b 6346 a7bb 478a bd3b
000001a0: 5645 abbb 9be1 00bc 0a0a caba 38e4 36b9
000001b0: 3050 a13b 30f4 6aba f034 b23a e69f 12bd
000001c0: 3963 25bc b9a6 c43c d34a 923c f62a b23c
000001d0: 369d 6c3c 6720 123d 7067 333b 51cf 6d3c
000001e0: 6389 ff3b f671 7fbb bf3c 533c 83c3 773b
000001f0: bb66 2bbc d8f0 6b3a ce58 1fba 24d8 523c
00000200: 02d4 dc3c d245 ddb9 b722 40bd 581b 4d3c
00000210: 55f8 fd3c 3456 cf3b deb6 f8bb 327f ea3c
00000220: 9c5d 8a3c b27b c13c 4216 c2ba 989e ddb9
00000230: 0704 2fbd a59a cebc 55ed 6fbd ca31 0c3d
00000240: fd21 a63c 8172 85bc d895 87bb 6565 0c3c
00000250: eb60 b13c 4b18 41bd dc65 e4bb 548d 49bd
00000260: c656 5bbc aec9 223d 09cd f5bc 85e5 3d3d
00000270: d02a 8e3c b41d 813c 4c90 4dbc b694 01bc
00000280: 726f 77bc 078a 50bd a310 df3c 410d a0bb
00000290: 3e76 c33c 6eb3 d13c d9f4 c43c e2f7 bbbc
000002a0: 8c5d b4bc 5ac7 d23b c2ab 8e3c 6235 c1bc
000002b0: c106 8abc 0d04 3d3c 112c b93b 7266 46bd
000002c0: 4cb3 8e3c 87c0 923c f956 0fbb 198b 76bc
000002d0: 500f 803d 2126 14bd 3bb5 053d 11eb d7bc
000002e0: 420d d2ba 3a1e 34bd 0b08 fb3c 9c4f 04bc
000002f0: 6e7c 27bc 6cf0 4ebd 7d7c 9abc f005 27bd
00000300: 208a d8ba f5dd 523c 9cdf a7bd fcbd 83bc
00000310: e02e 63bb 3823 9cbd e202 f6bc 3c14 203d
00000320: a8aa 19bc 0d82 2d3d f202 213c 5164 b83c
00000330: d93e cf3b a3d6 d43c c863 76bd ce08 c8bc
00000340: 241a efbc c228 eebc e42c 2e3d b8be 3a3c
00000350: 294a 1d3c 469c 38bd 0546 86bd 1858 5a3c
00000360: b408 08bd a586 a1bc 2a03 01bd 91d0 5abd
00000370: 7e33 993c de23 f53c dfc9 bbbc 2f13 9bbc
00000380: dbc1 d03c ac48 31bd 3439 533d ebf7 c23c
00000390: 3079 9a3d 07c8 b9bd b7e7 c93c e402 cbbc
000003a0: 0749 143d 21b9 803c 3486 d2bc 432e 5fbd
000003b0: e2bd 9ebd eee0 ec3c 65c4 593d 8c22 96bd
000003c0: 8d48 d0bc d909 ec3d 8d3f df3c 3b8d 183d
000003d0: ec22 343d 61c1 a4bc c766 663b 76de 70bd
000003e0: d22b 8c3c 69fe 013d d805 e739 40ce 10bc
000003f0: 3bd3 953c a0e6 73bd 1a9b 6a3c 8b0c a5bd

bias_ih_l0 f4 [256]
0.14830264 -0.027219847 -0.030231385 0.011917054 -0.090295896 0.04700637 -0.011068081 0.14164828
-0.0052328873 0.03970485 -0.06756093 0.058135785 -0.04103784 -0.029937426 0.027747367 -0.03761055
0.016716728 -0.077796146 0.019482926 0.021576377 -0.02791177 0.087809026 0.10102324 -0.06557839
-0.030734934 -0.033281013 0.13081124 0.09264833 -0.06370572 0.06252914 0.07133966 0.057618678
0.08472126 -0.11828057 0.15338784 0.0020176508 0.088236414 -0.08301356 0.06967477 0.018837368
0.0913514 0.035205044 0.10081155 0.030957507 0.062096424 -0.042415384 -0.06178868 0.057215918
0.056800753 -0.025167618 0.037819378 -0.01992402 -0.06788582 0.108828515 0.06933901 -0.08483239
0.016624887 0.08459244 0.092879176 -0.008835924 0.0019171285 0.011604908 0.019691106 -0.046525665
0.13097903 -0.04306807 0.14031518 0.03855478 -0.01620365 0.012783345 0.082294635 0.09756449
0.060314577 -0.040700156 0.026529696 -0.056347966 0.07202654 0.11904998 -0.034169316 -0.04800217
0.03235528 0.01992303 0.092615515 -0.07131743 0.010693235 0.028913405 0.111861184 -0.10230533
-0.08368475 0.06258474 0.10762084 0.025520146 -0.06137185 -0.008568846 -0.067193896 -0.0047714356
-0.0144500425 -0.10447047 0.14559223 0.067129955 0.043527562 0.09622896 0.0063587856 0.13477485
-0.038699143 0.024115797 0.08924306 0.05560053 -0.082460776 0.06613339 -0.029967917 -0.041027132
-0.045885798 0.13156645 0.032885525 -0.031023774 0.010561701 0.15534908 -0.00045120087 -0.046182927
-0.0190984 -0.038233273 0.071904294 0.035792455 0.030369416 -0.047858253 -0.05976899 0.07296106
0.048914503 -0.026481664 -0.09202347 0.029944325 -0.099718414 -0.1253028 0.07805778 -0.06889662
0.052806024 -0.036972426 0.05564777 -0.01854935 -0.0695734 0.09329546 -0.022224827 0.015180884
-0.026886152 0.008541711 0.04300688 0.0020484745 0.037168056 0.09877549 -0.11748281 -0.08475065
0.011876461 -0.0720299 0.08937826 -0.03526874 -0.081344165 0.016125241 -0.039606854 0.03357718
0.035760332 0.03396894 0.076294534 0.108268306 0.10472312 0.031638995 0.10568981 -0.01700341
-0.050005578 0.05093426 -0.06649048 0.03818764 -0.084750324 0.11754938 0.015813237 0.025862746
0.06091318 0.107799105 -0.059257474 0.1090417 0.104374185 -0.020393504 0.058050983 -0.08263171
-0.004649495 0.03281202 0.096195 -0.004805211 0.0412665 -0.047749598 -0.1181779 -0.04978224
-0.027197035 -0.077777915 0.113289446 -0.0110233305 -0.10900742 -0.030650478 -0.13200067 -0.052384164
-0.055715885 -0.053741433 -0.05867028 -0.0072972095 0.04773643 0.04521675 0.110057175 -0.060753502
-0.05145795 -0.020484965 -0.088285215 -0.09148097 0.055212427 -0.09204568 0.09695027 -0.049537044
0.06756978 -0.08850086 0.110305466 -0.015911588 -0.106214285 -0.049546402 -0.024480162 -0.008338531
-0.032177664 -0.0033427274 0.12952544 -0.017944613 0.051122844 0.033060666 0.054226715 0.0647688
0.0021638582 0.10620331 -0.042643353 -0.04119411 0.009067063 0.07516242 -0.058078814 0.07136844
-0.09346947 0.101635076 0.024294693 0.023145858 -0.06354279 0.09025406 0.055176817 -0.0400496
0.05191058 0.07827571 0.007850917 -0.013377972 -0.040198818 -0.004919158 -0.091712564 0.0057794615
00000000: a6dc 173e 28fc debc cfa7 f7bc bf3f 433c
00000010: 0eed b8bd c089 403d e556 35bc 3f0c 113e
00000020: a478 abbb 8ea1 223d 635d 8abd ca1f 6e3d
00000030: 4b17 28bd 553f f5bc 724e e33c 850d 1abd
00000040: 85f1 883c 9653 9fbd a89a 9f3c f1c0 b03c
00000050: 39a7 e4bc 38d5 b33d 46e5 ce3d f74d 86bd
00000060: d4c7 fbbc ac51 08bd 62f3 053e 68be bd3d
00000070: 2578 82bd 470f 803d 871a 923d 9001 6c3d
00000080: 5782 ad3d 153d f2bd b411 1d3e 903a 043b
00000090: 4bb5 b43d 0303 aabd a5b1 8e3d d350 9a3c
000000a0: 7116 bb3d 2a33 103d 4976 ce3d 999a fd3c
000000b0: d258 7e3d c1bb 2dbd 2016 7dbd 3d5b 6a3d
000000c0: e8a7 683d 522c cebc 7ee8 1a3d b337 a3bc
000000d0: b907 8bbd 7ce1 de3d 9c01 8e3d 9bbc adbd
000000e0: ea30 883c cd3e ad3d 7037 be3d 8dc4 10bc
000000f0: 2848 fb3a 8322 3e3c 3e4f a13c b291 3ebd
00000100: 5e1f 063e 2568 30bd c8ae 0f3e 9eeb 1d3d
00000110: 84bd 84bc 3c71 513c 178a a83d e4cf c73d
00000120: 6b0c 773d 35b5 26bd ce54 d93c 20cd 66bd
00000130: a782 933d 7ad0 f33d 20f5 0bbd ec9d 44bd
00000140: f886 043d 9f35 a33c 34ad bd3d df0e 92bd
00000150: ae32 2f3c cedb ec3c 7a17 e53d 7585 d1bd
00000160: e962 abbd 6e2c 803d 5168 dc3d a00f d13c
00000170: 0d61 7bbd 5864 0cbc f49c 89bd b459 9cbb
00000180: dfbf 6cbc 9df4 d5bd 2116 153e 6e7b 893d
00000190: f549 323d b013 c53d 5c5d d03b 6b02 0a3e
000001a0: fe82 1ebd 7e8e c53c 11c5 b63d 62bd 633d
000001b0: 32e1 a8bd f170 873d 477f f5bc 110c 28bd
000001c0: bff2 3bbd 5bb9 063e f9b2 063d 9225 febc
000001d0: fc0a 2d3c d413 1f3e 288f ecb9 4f2a 3dbd
000001e0: 3f74 9cbc 7e9a 1cbd 8f42 933d 1c9b 123d
000001f0: 48c9 f83c 0407 44bd 54d0 74bd 9c6c 953d
00000200: 935a 483d 13f0 d8bc cd76 bcbd cd4d f53c
00000210: 2b39 ccbd 614f 00be c2dc 9f3d ac19 8dbd
00000220: 214b 583d 6670 17bd ebee 633d cef4 97bc
00000230: 807c 8ebd b111 bf3d d710 b6bc 3eb9 783c
00000240: 5940 dcbc 88f2 0b3c fb27 303d b33f 063b
00000250: 883d 183d ce4a ca3d d49a f0bd c091 adbd
00000260: 7d95 423c 6a84 93bd f30b b73d f475 10bd
00000270: c597 a6bd 1519 843c cc3a 22bd 3a88 093d
00000280: 6d79 123d 0423 0b3d 4f40 9c3d c6bb dd3d
00000290: 1379 d63d e497 013d e673 d83d bc4a 8bbc
000002a0: a6d2 4cbd 71a0 503d 292c 88bd a56a 1c3d
000002b0: 9491 adbd bbbd f03d c38a 813c 1cde d33c
000002c0: 1980 793d c7c5 dc3d f7b7 72bd 4151 df3d
000002d0: 22c2 d53d 4710 a7bc dec6 6d3d d03a a9bd
000002e0: ca5a 98bb e665 063d e201 c53d 0875 9dbb
000002f0: 1007 293d 1595 43bd 4107 f2bd 76e8 4bbd
00000300: 51cc debc 074a 9fbd 4c04 e83d 339b 34bc
00000310: 483f dfbd b616 fbbc 2f2b 07be c790 56bd
00000320: 5736 64bd fa1f 5cbd 3f50 70bd 6e1d efbb
00000330: 4687 433d 3335 393d a865 e13d aad8 78bd
00000340: 92c5 52bd 16d0 a7bc e1ce b4bd 605a bbbd
00000350: 6d26 623d 7282 bcbd dd8d c63d 5be7 4abd
00000360: 0662 8a3d f03f b5bd d5e7 e13d 0559 82bc
00000370: e086 d9bd 2bf1 4abd 9f8a c8bc 559e 08bc
00000380: bacc 03bd a911 5bbb 51a2 043e 9500 93bc
00000390: 3066 513d 9f6a 073d d51c 5e3d 81a5 843d
000003a0: 84cf 0d3b 1f81 d93d ccaa 2ebd 28bb 28bd
000003b0: 058e 143c c1ee 993d 0de4 6dbd 9e29 923d
000003c0: ec6c bfbd 0d26 d03d aa05 c73c 629c bd3c
000003d0: b922 82bd 1fd7 b83d 1601 623d 0d0b 24bd
000003e0: 30a0 543d 044f a03d 22a1 003c 482f 5bbc
000003f0: 84a7 24bd e330 a1bb ccd3 bbbd a361 bd3b

bias_hh_l0 f4 [256]
0.0012309724 0.0045795925 -0.0034499022 0.16535527 -0.08085252 0.058565788 -0.07472929 0.124228865
-0.041021653 -0.014486218 -0.02109461 -0.067829415 0.11689057 -0.0571558 -0.013582416 0.045920983
-0.06300461 -0.0010544073 -0.05567501 -0.07231573 0.026867311 0.019782638 -0.03371319 0.0077190194
0.06419709 0.08751191 0.06756702 -0.049192388 0.013973187 -0.073720485 -0.08998338 -0.0149260815
-0.121914595 -0.07800505 0.029265193 -0.055093974 -0.055779226 -0.013482621 0.054325365 -0.033206556
0.024424829 -0.10362948 0.12343771 0.030978216 0.017464705 -0.0030216917 -0.015025384 0.060006734
0.023925712 -0.0378582 -0.07656843 0.025770491 -0.05384911 0.098872535 -0.03274884 0.077026054
0.099089324 0.062128562 0.098649636 0.085657485 0.011138997 -0.02708451 0.06381733 -0.023583744
-0.016989462 0.05415613 0.15581049 0.05717666 0.088210605 0.11480666 0.06214391 0.033432644
-0.07752748 0.05748476 -0.039467704 0.05499981 0.07742954 0.029628936 0.048588946 0.09259626
0.111265875 -0.0055149244 0.06999344 -0.031518385 -0.07534554 0.095323786 -0.01846005 -0.017696908
-0.04726789 0.0478247 -0.023351876 0.039052933 0.085468166 0.1233196 0.056081202 -0.013976861
0.063960135 0.043127358 -0.033573873 -0.08395785 0.072583236 0.025958426 -0.07754645 0.102182254
-0.019891853 -0.020513384 -0.07371911 -0.08292488 0.11627878 -0.07621522 0.0081446525 -0.024508178
-0.05242821 -0.057664577 0.026758324 -0.05295596 0.119019754 0.039697014 -0.025336001 -0.065002285
-0.008758901 0.052039217 -0.0652767 0.004931096 -0.04511608 0.15011425 0.11554804 0.07781
0.036839522 -0.11366526 -0.08485941 -0.11013808 -0.07307834 -0.08419273 0.054338485 0.030325042
0.04109596 0.13988173 -0.057161193 -0.058595154 0.06469834 -0.04440804 0.09381881 -0.009941347
-0.076205105 0.04234213 0.07718601 0.042284098 0.07551608 -0.017031198 0.035101656 0.05301309
-0.074657366 0.014984738 0.0070179477 0.017899428 -0.0745612 0.12189803 -0.1016997 0.030372182
0.05478411 -0.084692985 -0.00734424 -0.016923562 -0.017264936 -0.12500428 0.049353085 0.088489495
-0.043471426 -0.1108414 0.00022931182 -0.08647198 0.09638376 0.11258448 0.062216118 -0.013354262
-0.042143714 0.10502901 0.030920139 0.021095062 -0.014506139 0.0016615641 -0.068211876 -0.09042029
0.06382047 0.028293164 0.020812616 0.022374826 -0.09828989 -0.11365414 0.046690427 -0.13382839
-0.028385166 -0.09869132 0.023419289 0.042247623 -0.064031646 0.11436734 -0.012481438 0.0015599023
-0.02865425 -0.049887117 0.03415701 -0.008325663 -0.026657276 0.059323262 0.053498734 0.06347253
-0.06925708 0.05606799 -0.059084605 0.008486828 -0.07477286 -0.067495726 0.09283943 0.019568622
-0.09631607 0.043551564 0.023473091 0.018361408 0.037854034 -0.03703266 -0.07177042 0.05659515
0.075736895 0.030151766 0.17847747 -0.09449132 0.072658174 0.11284529 -0.05494268 0.1379808
-0.022238258 -0.06719675 0.019483075 -0.012253352 -0.035416055 0.06303462 0.036412586 0.039440997
0.064460404 0.09590168 -0.038584102 -0.12523355 -0.025334675 0.08460481 -0.0026046317 0.04810544
-0.07933706 -0.039075088 -0.0070712757 0.11311697 -0.052913092 -0.12853947 0.08118601 -0.084921
00000000: 9458 a13a 6810 963b c117 62bb e452 293e
00000010: 0296 a5bd aee2 6f3d ac0b 99bd b46b fe3d
00000020: 5206 28bd 9a57 6dbc 9bce acbc 26ea 8abd
00000030: 5364 ef3d 331c 6abd c888 5ebc a417 3c3d
00000040: 9008 81bd 0a34 8aba 7b0b 64bd 451a 94bd
00000050: d618 dc3c 330f a23c d816 0abd d4ef fc3b
00000060: c479 833d 7239 b33d 9460 8a3d f57d 49bd
00000070: cbef 643c c4fa 96bd 3549 b8bd 868c 74bc
00000080: 5cae f9bd 1dc1 9fbd 8fbd ef3c 38aa 61bd
00000090: c278 64bd 36e6 5cbc 4684 5e3d 9903 08bd
000000a0: 9416 c83c b13b d4bd e9cc fc3d 07c6 fd3c
000000b0: 2412 8f3c 9307 46bb 072d 76bc 9fc9 753d
000000c0: dbff c33c 3311 1bbd e9cf 9cbd a31c d33c
000000d0: e290 5cbd af7d ca3d a623 06bd d6bf 9d3d
000000e0: 58ef ca3d 857a 7e3d d208 ca3d 316d af3d
000000f0: 5780 363c 56e0 ddbc a9b2 823d b232 c1bc
00000100: 7c2d 8bbc d1d2 5d3d c98c 1f3e 1332 6a3d
00000110: c3a7 b43d c11f eb3d 9d8a 7e3d abf0 083d
00000120: bac6 9ebd 2475 6b3d e3a8 21bd 7b47 613d
00000130: 6193 9e3d 62b8 f23c 3405 473d 1ca3 bd3d
00000140: 5ddf e33d 8ab6 b4bb b858 8f3d 6c19 01bd
00000150: c34e 9abd 1e39 c33d 8839 97bc 1bf9 90bc
00000160: fa9b 41bd d5e3 433d 6f4c bfbc f8f5 1f3d
00000170: ef09 af3d fd8e fc3d 67b5 653d 34ff 64bc
00000180: 88fd 823d 50a6 303d c284 09bd 18f2 abbd
00000190: 85a6 943d c4a6 d43c acd0 9ebd ee44 d13d
000001a0: 3df4 a2bc af0b a8bc 0bfa 96bd 85d4 a9bd
000001b0: 9223 ee3d ba16 9cbd 2671 053c 60c5 c8bc
000001c0: f6be 56bd b131 6cbd 4634 db3c 59e8 58bd
000001d0: a1c0 f33d 5699 223d 728d cfbc eb1f 85bd
000001e0: 7e81 0fbc 1327 553d caaf 85bd 0895 a13b
000001f0: a4cb 38bd 8db7 193e 73a4 ec3d d95a 9f3d
00000200: 0ae5 163d 55c9 e8bd c5ca adbd 1390 e1bd
00000210: 19aa 95bd 3d6d acbd 0892 5e3d 396c f83c
00000220: 3d54 283d 283d 0f3e db21 6abd 7901 70bd
00000230: 9080 843d 34e5 35bd 1424 c03d 08e1 22bc
00000240: 6c11 9cbd f16e 2d3d b313 9e3d 1732 2d3d
00000250: 2da8 9a3d 0385 8bbc c1c6 0f3d 4124 593d
00000260: f6e5 98bd 8c82 753c d0f6 e53b d2a1 923c
00000270: 8bb3 98bd ada5 f93d ef47 d0bd 15cf f83c
00000280: 4e65 603d 8473 adbd f3a7 f0bb 48a3 8abc
00000290: 326f 8dbc 1f01 00be 7626 4a3d fb39 b53d
000002a0: 180f 32bd d100 e3bd 6c73 7039 3918 b1bd
000002b0: d964 c53d b192 e63d 54d6 7e3d d6cb 5abc
000002c0: e39e 2cbd 7319 d73d 3b4c fd3c 8dcf ac3c
000002d0: 28ab 6dbc d7c8 d93a abb2 8bbd 462e b9bd
000002e0: 4eb4 823d 11c7 e73c 387f aa3c 694b b73c
000002f0: 364c c9bd 80c3 e8bd 763e 3f3d 4f0a 09be
00000300: 0288 e8bc ad1e cabd cfd9 bf3c d80b 2d3d
00000310: 0623 83bd 6d39 ea3d f27e 4cbc a375 cc3a
00000320: 51bc eabc 6f56 4cbd 39e8 0b3d 5d68 08bc
00000330: 5c60 dabc f3fc 723d 7d21 5b3d e3fd 813d
00000340: a8d6 8dbd 8ca7 653d b302 72bd 560c 0b3c
00000350: 8322 99bd 333b 8abd 9922 be3d 604e a03c
00000360: 5c41 c5bd 2063 323d a44a c03c aa6a 963c
00000370: d50c 1b3d 8faf 17bd 5ffc 92bd 51d0 673d
00000380: f21b 9b3d d600 f73c ccc2 363e aa84 c1bd
00000390: cfcd 943d 6e1b e73d 930b 61bd d74a 0d3e
000003a0: 022d b6bc 739e 89bd f89a 9f3c 49c2 48bc
000003b0: 6d10 11bd 4b18 813d 5d25 153d e28c 213d
000003c0: d103 843d 1a68 c43d 5d0a 1ebd 393d 00be
000003d0: aa8a cfbc 4945 ad3d 78b2 2abb 360a 453d
000003e0: 787b a2bd 330d 20bd 29b6 e7bb dfa9 e73d
000003f0: 66bb 58bd da9f 03be da44 a63d 10eb adbd
